…
el_size=3, padding=1), # 256个[3*3*192]卷积核 nn.ReLU(inplace=True), nn.MaxPool2d(kernel_size=3, stride=2), ) self.fc4 = nn.Sequential( nn.Linear(1*1*256, 4096), nn.ReLU(inplace=True), nn.Dropout(0.5), # 防止过拟合，丢掉 p=0.5 的 nn.Linear(4096, 4096), nn.ReLU(inplace=True), nn.Dropout(0.5), # 防止过拟合，丢掉 p=0.5 的 nn.Linear(4096, n_class) ) def forward(self, x): con1_x = self.conv1(x) con2_x = self.conv2(con1_x) con3_x = self.conv3(con2_x) # 注意：卷积层到全连接层需要经过变换 lin_x = con3_x.view(con3_x.size(0), -1) # 用 reshape 也可以？注意和 reshape 的区别！ out = self.fc4(lin_x) return out 输出 AlexNet 的形状 AlexNet( (conv1): Sequential( (0): Conv2d(3, 96, kernel_size=(11, 11), stride=(4, 4)) (1): ReLU(inplace) (2): MaxPool2d(kernel_size=3, stride=2, padding=0, dilation=1, ceil_mode=False) ) (conv2): Sequential( (0): Conv2d(96, 256, kernel_size=(5, 5), stride=(1, 1), padding=(2, 2)) (1): ReLU(inplace) (2): MaxPool2d(kernel_size=3, stride=2, padding=0, dilation=1, ceil_mode=False) ) (conv3): Sequential( (0): Conv2d(256, 384, kernel_size=(3, 3), stride=(1, 1), padding=(1, 1)) (1): ReLU(inplace) (2): Conv2d(384, 384, kernel_size=(3, 3), stride=(1, 1), padding=(1, 1)) (3): ReLU(inplace) (4): Conv2d(384, 256, kernel_size=(3, 3), stride=(1, 1), padding=(1, 1)) (5): ReLU(inplace) (6): MaxPool2d(kernel_size=3, stride=2, padding=0, dilation=1, ceil_mode=False) ) (fc4): Sequential( (0): Linear(in_features=256, out_features=4096, bias=True) (1): ReLU(inplace) (2): Dropout(p=0.5) (3): Linear(in_features=4096, out_features =4096, bias=True) (4): ReLU(inplace) (5): Dropout(p=0.5) (6): Linear(in_features=4096, out_features=1000, bias=True) )) 图像预处理 AlexNet 使用的是 227227 的图片而本文使用的 CIFAR-10 数据集中已有 3232 的图片 12345transform = torchvision.transforms.Compose([ torchvision.transforms.Resize(96), torchvision.transforms.ToTensor(), # 将数据转化成 tensor torchvision.transforms.Normalize((0.5, 0.5, 0.5), (0.5, 0.5, 0.5)) # 归一化。参数为数据的平均差、标准差]) 定义超参数 12345use_gpu = torch.cuda.is_available()EPOCH = 3learning
…
ential( # BasicConv2d(3, 32, kernel_size=3, stride=2), # BasicConv2d(32, 32, kernel_size=3, stride=1), # BasicConv2d(32, 64, kernel_size=3, stride=1, padding=1), # Mixed_3a(), # Mixed_4a(), # Mixed_5a(), # Inception_A(), # Inception_A(), # Inception_A(), # Inception_A(), # Reduction_A(), # Mixed_6a # Inception_B(), # Inception_B(), # Inception_B(), # Inception_B(), # Inception_B(), # Inception_B(), # Inception_B(), # Reduction_B(), # Mixed_7a # Inception_C(), # Inception_C(), # Inception_C() # ) # 改变前的InceptionV4 print(model) # InceptionV4( # (features): Sequential( # (0): BasicConv2d( # (conv): Conv2d(3, 32, kernel_size=(3, 3), stride=(2, 2), bias=False) # (bn): BatchNorm2d(32, eps=0.001, momentum=0.1, affine=True, track_running_stats=True) # (relu): ReLU(inplace) # ) # (last_linear): (last_linear): Linear(in_features=1536, out_features=1000, bias=True) # 修改模型输入维度 model.features._modules["0"] = BasicConv2d(config.channels, 32, kernel_size=3, stride=2) # 修改模型输出维度 model.last_linear = nn.Sequential( nn.BatchNorm1d(1536), nn.Dropout(0.5), nn.Linear(1536, config.num_classes), ) # 查看部分层的方法(也可以用此方法进行修改) print(model.features._modules["21"].branch0.conv) print(model.features._modules["0"]._modules["conv"]) print(model.features._modules["0"].conv) # 改变后的InceptionV4 print(model) # (conv): Conv2d(4, 32, kernel_size=(3, 3), stride=(2, 2), bias=False) # (last_linear): Sequential( # (0): BatchNorm1d(1536, eps=1e-05, momentum=0.1, affine=True, track_running_stats=True) # (1): Dropout(p=0.5) # (2): Linear(in_features=1536, out_features=28, bias=True) # ) # 新创建的所有的训练参数名字 print(model.state_dict().keys()) # 新创建的模型的所有的参数iterator for i, j in model.named_parameters(): if i in ['last_linear.weight']: print(i) print(j) # 直接从官方model_zoo下载 # print("直接从官方model_zoo下载") # import torch.utils.model_zoo as model_zoo # # pretrained_dict = model_zoo.load_url('http://data.lip6.fr/cadene/pretrainedmodels/inceptionresn
…
