…
的（例如，conv2d, linear, batch_norm)采用nn.Xxx方式，没有学习参数的（例如，maxpool, loss func, activation func）等根据个人选择使用nn.functional.xxx或者nn.Xxx方式。但关于dropout，个人强烈推荐使用nn.Xxx方式，因为一般情况下只有训练阶段才进行dropout，在eval阶段都不会进行dropout。使用nn.Xxx方式定义dropout，在调用model.eval()之后，model中所有的dropout layer都关闭，但以nn.function.dropout方式定义dropout，在调用model.eval()之后并不能关闭dropout。 maskrcnn的结构 (1) backBone(ResNet, DenseNet) (2) neck(FPN) (3) rpn_head (4) bbox_roi_extractor(SingleRoIExtractor) (5) bbox_head(SharedFCBBoxHead) (6) mask_roi_extractor(SingleRoIExtractor) (7) mask_head(FCNMaskHead)…( (backbone): DenseNet_CJH( (features): Sequential( (conv0): Conv2d(3, 64, kernel_size=(7, 7), stride=(2, 2), padding=(3, 3), bias=False) (norm0): BatchNorm2d(64, eps=1e-05, momentum=0.1, affine=True, track_running_stats=True) (relu0): ReLU(inplace) (pool0): MaxPool2d(kernel_size=3, stride=2, padding=1, dilation=1, ceil_mode=False) ) (denseblock1): DenseBlock( (denselayer1): DenseLayer( (norm1): BatchNorm2d(64, eps=1e-05, momentum=0.1, affine=True, track_running_stats=True) (relu1): ReLU(inplace) (conv1): Conv2d(64, 128, kernel_size=(1, 1), stride=(1, 1), bias=False) (norm2): BatchNorm2d(128, eps=1e-05, momentum=0.1, affine=True, track_running_stats=True) (relu2): ReLU(inplace) (conv2): Conv2d(128, 32, kernel_size=(3, 3), stride=(1, 1), padding=(1, 1), bias=False) ) (denselayer2): DenseLayer( (norm1): BatchNorm2d(96, eps=1e-05, momentum=0.1, affine=True, track_running_stats=True) (relu1): ReLU(inplace) (conv1): Conv2d(96, 128, kernel_size=(1, 1), stride=(1, 1), bias=False) (norm2): BatchNorm2d(128, eps=1e-05, momentum=0.1, affine=True, track_running_stats=True) (relu2): ReLU(inplace) (conv2): Conv2d(128, 32, kernel_size=(3, 3), stride=(1, 1), padding=(1, 1), bias=False) ) (denselayer3): DenseLayer( (norm1): BatchNorm2d(128, eps=1e-05, momentum=0.1, affine=True, track_running_stats=True) (relu1): ReLU(inplace) (conv1): Conv2d(128, 128, kernel_size=(1, 1), stride=(1, 1), bias=False) (norm2): BatchNorm2d(128, eps=1e-05, momentum=0.1, affine=True, track_running_stats=True) (relu2): ReLU(inplace) (conv2): Conv2d(128, 32, kernel_size=(3, 3), stride=(1, 1), padding=(1, 1), bias=False) ) (denselayer4): DenseLayer( (norm1): BatchNorm2d(160, eps=1e-05, momentum=0.1, affine=True, track_running_stats=True) (relu1): ReLU(inplace) (conv1): Conv2d(160, 128, kernel_size=(1, 1), stride=(1, 1), bias=False) (norm2): BatchNorm2d(128, eps=1e-05, momentum=0.1, affine=True, track_running_stats=True) (relu2): ReLU(inplace) (conv2): Conv2d(128, 32, kernel_size=(3, 3), stride=(1, 1), padding=(1, 1), bias=False) ) (denselayer5): DenseLayer( (norm1): BatchNorm2d(192, eps=1e-05, momentum=0.1, affine=True, track_running_stats=True) (relu1): ReLU(inplace) (conv1): Conv2d(192, 128, kernel_size=(1, 1), stride=(1, 1), bias=False) (norm2): BatchNorm2d(128, eps=1e-05, momentum=0.1, affine=True, track_running_stats=True) (relu2): ReLU(inplace) (conv2): Conv2d(128, 32, kernel_size=(3, 3), stride=(1, 1), padding=(1, 1), bias=False) ) (denselayer6): DenseLayer( (norm1): BatchNorm2d(224, eps=1e-05, momentum=0.1, affine=True, track_running_stats=True) (relu1): ReLU(inplace) (conv1): Conv2d(224, 128, kernel_size=(1, 1), stride=(1, 1), bias=False) (norm2): BatchNorm2d(128, eps=1e-05, momentum=0.1, affine=True, track_running_stats=True) (relu2): ReLU(inplace) (conv2): Conv2d(128, 32, kernel_size=(3, 3), stride=(1, 1), padding=(1, 1), bias=False) ) ) (transition1): Transition( (norm): BatchNorm2d(256, eps=1e-05, momentum=0.1, affine=True, track_running_stats=True) (relu): ReLU(inplace) (conv): Conv2d(256, 128, kernel_size=(1, 1), stride=(1, 1), bias=False) (pool): AvgPool2d(kernel_size=2, stride=2, padding=0) ) (denseblock2): DenseBlock( (denselayer1): DenseLayer( (norm1): BatchNorm2d(128, eps=1e-05, momentum=0.1, affine=True, track_running_stats=True) (relu1): ReLU(inplace) (conv1): Conv2d(128, 128, kernel_size=(1, 1), stride=(1, 1), bias=False) (norm2): BatchNorm2d(128, eps=1e-05, momentum=0.1, affine=True, track_running_stats=True) (relu2): ReLU(inplace) (conv2): Conv2d(128, 32, kernel_size=(3, 3), stride=(1, 1), padding=(1, 1), bias=False) ) (denselayer2): DenseLayer( (norm1): BatchNorm2d(160, eps=1e-05, momentum=0.1, affine=True, track_running_stats=True) (relu1): ReLU(inplace) (conv1): Conv2d(160, 128, kernel_size=(1, 1), stride=(1, 1), bias=False) (norm2): BatchNorm2d(128, eps=1e-05, momentum=0.1, affine=True, track_running_stats=True) (relu2): ReLU(inplace) (conv2): Conv2d(128, 32, kernel_size=(3, 3), stride=(1, 1), padding=(1, 1), bias=False) ) (denselayer3): DenseLayer( (norm1): BatchNorm2d(192, eps=1e-05, momentum=0.1, affine=True, track_running_stats=True) (relu1): ReLU(inplace) (conv1): Conv2d(192, 128, kernel_size=(1, 1), stride=(1, 1), bias=False) (norm2): BatchNorm2d(128, eps=1e-05, momentum=0.1, affine=True, track_running_stats=True) (relu2): ReLU(inplace) (conv2): Conv2d(128, 32, kernel_size=(3, 3), stride=(1, 1), padding=(1, 1), bias=False) ) (denselayer4): DenseLayer( (norm1): BatchNorm2d(224, eps=1e-05, momentum=0.1, affine=True, track_running_stats=True) (relu1): ReLU(inplace) (conv1): Conv2d(224, 128, kernel_size=(1, 1), stride=(1, 1), bias=False) (norm2): BatchNorm2d(128, eps=1e-05, momentum=0.1, affine=True, track_running_stats=True) (relu2): ReLU(inplace) (conv2): Conv2d(128, 32, kernel_size=(3, 3), stride=(1, 1), padding=(1, 1), bias=False) ) (denselayer5): DenseLayer( (norm1): BatchNorm2d(256, eps=1e-05, momentum=0.1, affine=True, track_running_stats=True) (relu1): ReLU(inplace) (conv1): Conv2d(256, 128, kernel_size=(1, 1), stride=(1, 1), bias=False) (norm2): BatchNorm2d(128, eps=1e-05, momentum=0.1, affine=True, track_running_stats=True) (relu2): ReLU(inplace) (conv2): Conv2d(128, 32, kernel_size=(3, 3), stride=(1, 1), padding=(1, 1), bias=False) ) (denselayer6): DenseLayer( (norm1): BatchNorm2d(288, eps=1e-05, momentum=0.1, affine=True, track_running_stats=True) (relu1): ReLU(inplace) (conv1): Conv2d(288, 128, kernel_size=(1, 1), stride=(1, 1), bias=False) (norm2): BatchNorm2d(128, eps=1e-05, momentum=0.1, affine=True, track_running_stats=True) (relu2): ReLU(inplace) (conv2): Conv2d(128, 32, kernel_size=(3, 3), stride=(1, 1), padding=(1, 1), bias=False) ) (denselayer7): DenseLayer( (norm1): BatchNorm2d(320, eps=1e-05, momentum=0.1, affine=True, track_running_stats=True) (relu1): ReLU(inplace) (conv1): Conv2d(320, 128, kernel_size=(1, 1), stride=(1, 1), bias=False) (norm2): BatchNorm2d(128, eps=1e-05, momentum=0.1, affine=True, track_running_stats=True) (relu2): ReLU(inplace) (conv2): Conv2d(128, 32, kernel_size=(3, 3), stride=(1, 1), padding=(1, 1), bias=False) ) (denselayer8): DenseLayer( (norm1): BatchNorm2d(352, eps=1e-05, momentum=0.1, affine=True, track_running_stats=True) (relu1): ReLU(inplace) (conv1): Conv2d(352, 128, kernel_size=(1, 1), stride=(1, 1), bias=False) (norm2): BatchNorm2d(128, eps=1e-05, momentum=0.1, affine=True, track_running_stats=True) (relu2): ReLU(inplace) (conv2): Conv2d(128, 32, kernel_size=(3, 3), stride=(1, 1), padding=(1, 1), bias=False) ) (denselayer9): DenseLayer( (norm1): BatchNorm2d(384, eps=1e-05, momentum=0.1, affine=True, track_running_stats=True) (relu1): ReLU(inplace) (conv1): Conv2d(384, 128, kernel_size=(1, 1), stride=(1, 1), bias=False) (norm2): BatchNorm2d(128, eps=1e-05, momentum=0.1, affine=True, track_running_stats=True) (relu2): ReLU(inplace) (conv2): Conv2d(128, 32, kernel_size=(3, 3), stride=(1, 1), padding=(1, 1), bias=False) ) (denselayer10): DenseLayer( (norm1): BatchNorm2d(416, eps=1e-05, momentum=0.1, affine=True, track_running_stats=True) (relu1): ReLU(inplace) (conv1): Conv2d(416, 128, kernel_size=(1, 1), stride=(1, 1), bias=False) (norm2): BatchNorm2d(128, eps=1e-05, momentum=0.1, affine=True, track_running_stats=True) (relu2): ReLU(inplace) (conv2): Conv2d(128, 32, kernel_size=(3, 3), stride=(1, 1), padding=(1, 1), bias=False) ) (denselayer11): DenseLayer( (norm1): BatchNorm2d(448, eps=1e-05, momentum=0.1, affine=True, track_running_stats=True) (relu1): ReLU(inplace) (conv1): Conv2d(448, 128, kernel_size=(1, 1), stride=(1, 1), bias=False) (norm2): BatchNorm2d(128, eps=1e-05, momentum=0.1, affine=True, track_running_stats=True) (relu2): ReLU(inplace) (conv2): Conv2d(128, 32, kernel_size=(3, 3), stride=(1, 1), padding=(1, 1), bias=False) ) (denselayer12): DenseLayer( (norm1): BatchNorm2d(480, eps=1e-05, momentum=0.1, affine=True, track_running_stats=True) (relu1): ReLU(inplace) (conv1): Conv2d(480, 128, kernel_size=(1, 1), stride=(1, 1), bias=False) (norm2): BatchNorm2d(128, eps=1e-05, momentum=0.1, affine=True, track_running_stats=True) (relu2): ReLU(inplace) (conv2): Conv2d(128, 32, kernel_size=(3, 3), stride=(1, 1), padding=(1, 1), bias=False) ) ) (transition2): Transition( (norm): BatchNorm2d(512, eps=1e-05, momentum=0.1, affine=True, track_running_stats=True) (relu): ReLU(inplace) (conv): Conv2d(512, 256, kernel_size=(1, 1), stride=(1, 1), bias=False) (pool): AvgPool2d(kernel_size=2, stride=2, padding=0) ) (denseblock3): DenseBlock( (denselayer1): DenseLayer( (norm1): BatchNorm2d(256, eps=1e-05, momentum=0.1, affine=True, track_running_stats=True) (relu1): ReLU(inplace) (conv1): Conv2d(256, 128, kernel_size=(1, 1), stride=(1, 1), bias=False) (norm2): BatchNorm2d(128, eps=1e-05, momentum=0.1, affine=True, track_running_stats=True) (relu2): ReLU(inplace) (conv2): Conv2d(128, 32, kernel_size=(3, 3), stride=(1, 1), padding=(1, 1), bias=False) ) (denselayer2): DenseLayer( (norm1): BatchNorm2d(288, eps=1e-05, momentum=0.1, affine=True, track_running_stats=True) (relu1): ReLU(inplace) (conv1): Conv2d(288, 128, kernel_size=(1, 1), stride=(1, 1), bias=False) (norm2): BatchNorm2d(128, eps=1e-05, momentum=0.1, affine=True, track_running_stats=True) (relu2): ReLU(inplace) (conv2): Conv2d(128, 32, kernel_size=(3, 3), stride=(1, 1), padding=(1, 1), bias=False) ) (denselayer3): DenseLayer( (norm1): BatchNorm2d(320, eps=1e-05, momentum=0.1, affine=True, track_running_stats=True) (relu1): ReLU(inplace) (conv1): Conv2d(320, 128, kernel_size=(1, 1), stride=(1, 1), bias=False) (norm2): BatchNorm2d(128, eps=1e-05, momentum=0.1, affine=True, track_running_stats=True) (relu2): ReLU(inplace) (conv2): Conv2d(128, 32, kernel_size=(3, 3), stride=(1, 1), padding=(1, 1), bias=False) ) (denselayer4): DenseLayer( (norm1): BatchNorm2d(352, eps=1e-05, momentum=0.1, affine=True, track_running_stats=True) (relu1): ReLU(inplace) (conv1): Conv2d(352, 128, kernel_size=(1, 1), stride=(1, 1), bias=False) (norm2): BatchNorm2d(128, eps=1e-05, momentum=0.1, affine=True, track_running_stats=True) (relu2): ReLU(inplace) (conv2): Conv2d(128, 32, kernel_size=(3, 3), stride=(1, 1), padding=(1, 1), bias=False) ) (denselayer5): DenseLayer( (norm1): BatchNorm2d(384, eps=1e-05, momentum=0.1, affine=True, track_running_stats=True) (relu1): ReLU(inplace) (conv1): Conv2d(384, 128, kernel_size=(1, 1), stride=(1, 1), bias=False) (norm2): BatchNorm2d(128, eps=1e-05, momentum=0.1, affine=True, track_running_stats=True) (relu2): ReLU(inplace) (conv2): Conv2d(128, 32, kernel_size=(3, 3), stride=(1, 1), padding=(1, 1), bias=False) ) (denselayer6): DenseLayer( (norm1): BatchNorm2d(416, eps=1e-05, momentum=0.1, affine=True, track_running_stats=True) (relu1): ReLU(inplace) (conv1): Conv2d(416, 128, kernel_size=(1, 1), stride=(1, 1), bias=False) (norm2): BatchNorm2d(128, eps=1e-05, momentum=0.1, affine=True, track_running_stats=True) (relu2): ReLU(inplace) (conv2): Conv2d(128, 32, kernel_size=(3, 3), stride=(1, 1), padding=(1, 1), bias=False) ) (denselayer7): DenseLayer( (norm1): BatchNorm2d(448, eps=1e-05, momentum=0.1, affine=True, track_running_stats=True) (relu1): ReLU(inplace) (conv1): Conv2d(448, 128, kernel_size=(1, 1), stride=(1, 1), bias=False) (norm2): BatchNorm2d(128, eps=1e-05, momentum=0.1, affine=True, track_running_stats=True) (relu2): ReLU(inplace) (conv2): Conv2d(128, 32, kernel_size=(3, 3), stride=(1, 1), padding=(1, 1), bias=False) ) (denselayer8): DenseLayer( (norm1): BatchNorm2d(480, eps=1e-05, momentum=0.1, affine=True, track_running_stats=True) (relu1): ReLU(inplace) (conv1): Conv2d(480, 128, kernel_size=(1, 1), stride=(1, 1), bias=False) (norm2): BatchNorm2d(128, eps=1e-05, momentum=0.1, affine=True, track_running_stats=True) (relu2): ReLU(inplace) (conv2): Conv2d(128, 32, kernel_size=(3, 3), stride=(1, 1), padding=(1, 1), bias=False) ) (denselayer9): DenseLayer( (norm1): BatchNorm2d(512, eps=1e-05, momentum=0.1, affine=True, track_running_stats=True) (relu1): ReLU(inplace) (conv1): Conv2d(512, 128, kernel_size=(1, 1), stride=(1, 1), bias=False) (norm2): BatchNorm2d(128, eps=1e-05, momentum=0.1, affine=True, track_running_stats=True) (relu2): ReLU(inplace) (conv2): Conv2d(128, 32, kernel_size=(3, 3), stride=(1, 1), padding=(1, 1), bias=False) ) (denselayer10): DenseLayer( (norm1): BatchNorm2d(544, eps=1e-05, momentum=0.1, affine=True, track_running_stats=True) (relu1): ReLU(inplace) (conv1): Conv2d(544, 128, kernel_size=(1, 1), stride=(1, 1), bias=False) (norm2): BatchNorm2d(128, eps=1e-05, momentum=0.1, affine=True, track_running_stats=True) (relu2): ReLU(inplace) (conv2): Conv2d(128, 32, kernel_size=(3, 3), stride=(1, 1), padding=(1, 1), bias=False) ) (denselayer11): DenseLayer( (norm1): BatchNorm2d(576, eps=1e-05, momentum=0.1, affine=True, track_running_stats=True) (relu1): ReLU(inplace) (conv1): Conv2d(576, 128, kernel_size=(1, 1), stride=(1, 1), bias=False) (norm2): BatchNorm2d(128, eps=1e-05, momentum=0.1, affine=True, track_running_stats=True) (relu2): ReLU(inplace) (conv2): Conv2d(128, 32, kernel_size=(3, 3), stride=(1, 1), padding=(1, 1), bias=False) ) (denselayer12): DenseLayer( (norm1): BatchNorm2d(608, eps=1e-05, momentum=0.1, affine=True, track_running_stats=True) (relu1): ReLU(inplace) (conv1): Conv2d(608, 128, kernel_size=(1, 1), stride=(1, 1), bias=False) (norm2): BatchNorm2d(128, eps=1e-05, momentum=0.1, affine=True, track_running_stats=True) (relu2): ReLU(inplace) (conv2): Conv2d(128, 32, kernel_size=(3, 3), stride=(1, 1), padding=(1, 1), bias=False) ) (denselayer13): DenseLayer( (norm1): BatchNorm2d(640, eps=1e-05, momentum=0.1, affine=True, track_running_stats=True) (relu1): ReLU(inplace) (conv1): Conv2d(640, 128, kernel_size=(1, 1), stride=(1, 1), bias=False) (norm2): BatchNorm2d(128, eps=1e-05, momentum=0.1, affine=True, track_running_stats=True) (relu2): ReLU(inplace) (conv2): Conv2d(128, 32, kernel_size=(3, 3), stride=(1, 1), padding=(1, 1), bias=False) ) (denselayer14): DenseLayer( (norm1): BatchNorm2d(672, eps=1e-05, momentum=0.1, affine=True, track_running_stats=True) (relu1): ReLU(inplace) (conv1): Conv2d(672, 128, kernel_size=(1, 1), stride=(1, 1), bias=False) (norm2): BatchNorm2d(128, eps=1e-05, momentum=0.1, affine=True, track_running_stats=True) (relu2): ReLU(inplace) (conv2): Conv2d(128, 32, kernel_size=(3, 3), stride=(1, 1), padding=(1, 1), bias=False) ) (denselayer15): DenseLayer( (norm1): BatchNorm2d(704, eps=1e-05, momentum=0.1, affine=True, track_running_stats=True) (relu1): ReLU(inplace) (conv1): Conv2d(704, 128, kernel_size=(1, 1), stride=(1, 1), bias=False) (norm2): BatchNorm2d(128, eps=1e-05, momentum=0.1, affine=True, track_running_stats=True) (relu2): ReLU(inplace) (conv2): Conv2d(128, 32, kernel_size=(3, 3), stride=(1, 1), padding=(1, 1), bias=False) ) (denselayer16): DenseLayer( (norm1): BatchNorm2d(736, eps=1e-05, momentum=0.1, affine=True, track_running_stats=True) (relu1): ReLU(inplace) (conv1): Conv2d(736, 128, kernel_size=(1, 1), stride=(1, 1), bias=False) (norm2): BatchNorm2d(128, eps=1e-05, momentum=0.1, affine=True, track_running_stats=True) (relu2): ReLU(inplace) (conv2): Conv2d(128, 32, kernel_size=(3, 3), stride=(1, 1), padding=(1, 1), bias=False) ) (denselayer17): DenseLayer( (norm1): BatchNorm2d(768, eps=1e-05, momentum=0.1, affine=True, track_running_stats=True) (relu1): ReLU(inplace) (conv1): Conv2d(768, 128, kernel_size=(1, 1), stride=(1, 1), bias=False) (norm2): BatchNorm2d(128, eps=1e-05, momentum=0.1, affine=True, track_running_stats=True) (relu2): ReLU(inplace) (conv2): Conv2d(128, 32, kernel_size=(3, 3), stride=(1, 1), padding=(1, 1), bias=False) ) (denselayer18): DenseLayer( (norm1): BatchNorm2d(800, eps=1e-05, momentum=0.1, affine=True, track_running_stats=True) (relu1): ReLU(inplace) (conv1): Conv2d(800, 128, kernel_size=(1, 1), stride=(1, 1), bias=False) (norm2): BatchNorm2d(128, eps=1e-05, momentum=0.1, affine=True, track_running_stats=True) (relu2): ReLU(inplace) (conv2): Conv2d(128, 32, kernel_size=(3, 3), stride=(1, 1), padding=(1, 1), bias=False) ) (denselayer19): DenseLayer( (norm1): BatchNorm2d(832, eps=1e-05, momentum=0.1, affine=True, track_running_stats=True) (relu1): ReLU(inplace) (conv1): Conv2d(832, 128, kernel_size=(1, 1), stride=(1, 1), bias=False) (norm2): BatchNorm2d(128, eps=1e-05, momentum=0.1, affine=True, track_running_stats=True) (relu2): ReLU(inplace) (conv2): Conv2d(128, 32, kernel_size=(3, 3), stride=(1, 1), padding=(1, 1), bias=False) ) (denselayer20): DenseLayer( (norm1): BatchNorm2d(864, eps=1e-05, momentum=0.1, affine=True, track_running_stats=True) (relu1): ReLU(inplace) (conv1): Conv2d(864, 128, kernel_size=(1, 1), stride=(1, 1), bias=False) (norm2): BatchNorm2d(128, eps=1e-05, momentum=0.1, affine=True, track_running_stats=True) (relu2): ReLU(inplace) (conv2): Conv2d(128, 32, kernel_size=(3, 3), stride=(1, 1), padding=(1, 1), bias=False) ) (denselayer21): DenseLayer( (norm1): BatchNorm2d(896, eps=1e-05, momentum=0.1, affine=True, track_running_stats=True) (relu1): ReLU(inplace) (conv1): Conv2d(896, 128, kernel_size=(1, 1), stride=(1, 1), bias=False) (norm2): BatchNorm2d(128, eps=1e-05, momentum=0.1, affine=True, track_running_stats=True) (relu2): ReLU(inplace) (conv2): Conv2d(128, 32, kernel_size=(3, 3), stride=(1, 1), padding=(1, 1), bias=False) ) (denselayer22): DenseLayer( (norm1): BatchNorm2d(928, eps=1e-05, momentum=0.1, affine=True, track_running_stats=True) (relu1): ReLU(inplace) (conv1): Conv2d(928, 128, kernel_size=(1, 1), stride=(1, 1), bias=False) (norm2): BatchNorm2d(128, eps=1e-05, momentum=0.1, affine=True, track_running_stats=True) (relu2): ReLU(inplace) (conv2): Conv2d(128, 32, kernel_size=(3, 3), stride=(1, 1), padding=(1, 1), bias=False) ) (denselayer23): DenseLayer( (norm1): BatchNorm2d(960, eps=1e-05, momentum=0.1, affine=True, track_running_stats=True) (relu1): ReLU(inplace) (conv1): Conv2d(960, 128, kernel_size=(1, 1), stride=(1, 1), bias=False) (norm2): BatchNorm2d(128, eps=1e-05, momentum=0.1, affine=True, track_running_stats=True) (relu2): ReLU(inplace) (conv2): Conv2d(128, 32, kernel_size=(3, 3), stride=(1, 1), padding=(1, 1), bias=False) ) (denselayer24): DenseLayer( (norm1): BatchNorm2d(992, eps=1e-05, momentum=0.1, affine=True, track_running_stats=True) (relu1): ReLU(inplace) (conv1): Conv2d(992, 128, kernel_size=(1, 1), stride=(1, 1), bias=False) (norm2): BatchNorm2d(128, eps=1e-05, momentum=0.1, affine=True, track_running_stats=True) (relu2): ReLU(inplace) (conv2): Conv2d(128, 32, kernel_size=(3, 3), stride=(1, 1), padding=(1, 1), bias=False) ) ) (transition3): Transition( (norm): BatchNorm2d(1024, eps=1e-05, momentum=0.1, affine=True, track_running_stats=True) (relu): ReLU(inplace) (conv): Conv2d(1024, 512, kernel_size=(1, 1), stride=(1, 1), bias=False) (pool): AvgPool2d(kernel_size=2, stride=2, padding=0) ) (denseblock4): DenseBlock( (denselayer1): DenseLayer( (norm1): BatchNorm2d(512, eps=1e-05, momentum=0.1, affine=True, track_running_stats=True) (relu1): ReLU(inplace) (conv1): Conv2d(512, 128, kernel_size=(1, 1), stride=(1, 1), bias=False) (norm2): BatchNorm2d(128, eps=1e-05, momentum=0.1, affine=True, track_running_stats=True) (relu2): ReLU(inplace) (conv2): Conv2d(128, 32, kernel_size=(3, 3), stride=(1, 1), padding=(1, 1), bias=False) ) (denselayer2): DenseLayer( (norm1): BatchNorm2d(544, eps=1e-05, momentum=0.1, affine=True, track_running_stats=True) (relu1): ReLU(inplace) (conv1): Conv2d(544, 128, kernel_size=(1, 1), stride=(1, 1), bias=False) (norm2): BatchNorm2d(128, eps=1e-05, momentum=0.1, affine=True, track_running_stats=True) (relu2): ReLU(inplace) (conv2): Conv2d(128, 32, kernel_size=(3, 3), stride=(1, 1), padding=(1, 1), bias=False) ) (denselayer3): DenseLayer( (norm1): BatchNorm2d(576, eps=1e-05, momentum=0.1, affine=True, track_running_stats=True) (relu1): ReLU(inplace) (conv1): Conv2d(576, 128, kernel_size=(1, 1), stride=(1, 1), bias=False) (norm2): BatchNorm2d(128, eps=1e-05, momentum=0.1, affine=True, track_running_stats=True) (relu2): ReLU(inplace) (conv2): Conv2d(128, 32, kernel_size=(3, 3), stride=(1, 1), padding=(1, 1), bias=False) ) (denselayer4): DenseLayer( (norm1): BatchNorm2d(608, eps=1e-05, momentum=0.1, affine=True, track_running_stats=True) (relu1): ReLU(inplace) (conv1): Conv2d(608, 128, kernel_size=(1, 1), stride=(1, 1), bias=False) (norm2): BatchNorm2d(128, eps=1e-05, momentum=0.1, affine=True, track_running_stats=True) (relu2): ReLU(inplace) (conv2): Conv2d(128, 32, kernel_size=(3, 3), stride=(1, 1), padding=(1, 1), bias=False) ) (denselayer5): DenseLayer( (norm1): BatchNorm2d(640, eps=1e-05, momentum=0.1, affine=True, track_running_stats=True) (relu1): ReLU(inplace) (conv1): Conv2d(640, 128, kernel_size=(1, 1), stride=(1, 1), bias=False) (norm2): BatchNorm2d(128, eps=1e-05, momentum=0.1, affine=True, track_running_stats=True) (relu2): ReLU(inplace) (conv2): Conv2d(128, 32, kernel_size=(3, 3), stride=(1, 1), padding=(1, 1), bias=False) ) (denselayer6): DenseLayer( (norm1): BatchNorm2d(672, eps=1e-05, momentum=0.1, affine=True, track_running_stats=True) (relu1): ReLU(inplace) (conv1): Conv2d(672, 128, kernel_size=(1, 1), stride=(1, 1), bias=False) (norm2): BatchNorm2d(128, eps=1e-05, momentum=0.1, affine=True, track_running_stats=True) (relu2): ReLU(inplace) (conv2): Conv2d(128, 32, kernel_size=(3, 3), stride=(1, 1), padding=(1, 1), bias=False) ) (denselayer7): DenseLayer( (norm1): BatchNorm2d(704, eps=1e-05, momentum=0.1, affine=True, track_running_stats=True) (relu1): ReLU(inplace) (conv1): Conv2d(704, 128, kernel_size=(1, 1), stride=(1, 1), bias=False) (norm2): BatchNorm2d(128, eps=1e-05, momentum=0.1, affine=True, track_running_stats=True) (relu2): ReLU(inplace) (conv2): Conv2d(128, 32, kernel_size=(3, 3), stride=(1, 1), padding=(1, 1), bias=False) ) (denselayer8): DenseLayer( (norm1): BatchNorm2d(736, eps=1e-05, momentum=0.1, affine=True, track_running_stats=True) (relu1): ReLU(inplace) (conv1): Conv2d(736, 128, kernel_size=(1, 1), stride=(1, 1), bias=False) (norm2): BatchNorm2d(128, eps=1e-05, momentum=0.1, affine=True, track_running_stats=True) (relu2): ReLU(inplace) (conv2): Conv2d(128, 32, kernel_size=(3, 3), stride=(1, 1), padding=(1, 1), bias=False) ) (denselayer9): DenseLayer( (norm1): BatchNorm2d(768, eps=1e-05, momentum=0.1, affine=True, track_running_stats=True) (relu1): ReLU(inplace) (conv1): Conv2d(768, 128, kernel_size=(1, 1), stride=(1, 1), bias=False) (norm2): BatchNorm2d(128, eps=1e-05, momentum=0.1, affine=True, track_running_stats=True) (relu2): ReLU(inplace) (conv2): Conv2d(128, 32, kernel_size=(3, 3), stride=(1, 1), padding=(1, 1), bias=False) ) (denselayer10): DenseLayer( (norm1): BatchNorm2d(800, eps=1e-05, momentum=0.1, affine=True, track_running_stats=True) (relu1): ReLU(inplace) (conv1): Conv2d(800, 128, kernel_size=(1, 1), stride=(1, 1), bias=False) (norm2): BatchNorm2d(128, eps=1e-05, momentum=0.1, affine=True, track_running_stats=True) (relu2): ReLU(inplace) (conv2): Conv2d(128, 32, kernel_size=(3, 3), stride=(1, 1), padding=(1, 1), bias=False) ) (denselayer11): DenseLayer( (norm1): BatchNorm2d(832, eps=1e-05, momentum=0.1, affine=True, track_running_stats=True) (relu1): ReLU(inplace) (conv1): Conv2d(832, 128, kernel_size=(1, 1), stride=(1, 1), bias=False) (norm2): BatchNorm2d(128, eps=1e-05, momentum=0.1, affine=True, track_running_stats=True) (relu2): ReLU(inplace) (conv2): Conv2d(128, 32, kernel_size=(3, 3), stride=(1, 1), padding=(1, 1), bias=False) ) (denselayer12): DenseLayer( (norm1): BatchNorm2d(864, eps=1e-05, momentum=0.1, affine=True, track_running_stats=True) (relu1): ReLU(inplace) (conv1): Conv2d(864, 128, kernel_size=(1, 1), stride=(1, 1), bias=False) (norm2): BatchNorm2d(128, eps=1e-05, momentum=0.1, affine=True, track_running_stats=True) (relu2): ReLU(inplace) (conv2): Conv2d(128, 32, kernel_size=(3, 3), stride=(1, 1), padding=(1, 1), bias=False) ) (denselayer13): DenseLayer( (norm1): BatchNorm2d(896, eps=1e-05, momentum=0.1, affine=True, track_running_stats=True) (relu1): ReLU(inplace) (conv1): Conv2d(896, 128, kernel_size=(1, 1), stride=(1, 1), bias=False) (norm2): BatchNorm2d(128, eps=1e-05, momentum=0.1, affine=True, track_running_stats=True) (relu2): ReLU(inplace) (conv2): Conv2d(128, 32, kernel_size=(3, 3), stride=(1, 1), padding=(1, 1), bias=False) ) (denselayer14): DenseLayer( (norm1): BatchNorm2d(928, eps=1e-05, momentum=0.1, affine=True, track_running_stats=True) (relu1): ReLU(inplace) (conv1): Conv2d(928, 128, kernel_size=(1, 1), stride=(1, 1), bias=False) (norm2): BatchNorm2d(128, eps=1e-05, momentum=0.1, affine=True, track_running_stats=True) (relu2): ReLU(inplace) (conv2): Conv2d(128, 32, kernel_size=(3, 3), stride=(1, 1), padding=(1, 1), bias=False) ) (denselayer15): DenseLayer( (norm1): BatchNorm2d(960, eps=1e-05, momentum=0.1, affine=True, track_running_stats=True) (relu1): ReLU(inplace) (conv1): Conv2d(960, 128, kernel_size=(1, 1), stride=(1, 1), bias=False) (norm2): BatchNorm2d(128, eps=1e-05, momentum=0.1, affine=True, track_running_stats=True) (relu2): ReLU(inplace) (conv2): Conv2d(128, 32, kernel_size=(3, 3), stride=(1, 1), padding=(1, 1), bias=False) ) (denselayer16): DenseLayer( (norm1): BatchNorm2d(992, eps=1e-05, momentum=0.1, affine=True, track_running_stats=True) (relu1): ReLU(inplace) (conv1): Conv2d(992, 128, kernel_size=(1, 1), stride=(1, 1), bias=False) (norm2): BatchNorm2d(128, eps=1e-05, momentum=0.1, affine=True, track_running_stats=True) (relu2): ReLU(inplace) (conv2): Conv2d(128, 32, kernel_size=(3, 3), stride=(1, 1), padding=(1, 1), bias=False) ) ) (conv_final): Conv2d(1024, 2048, kernel_size=(1, 1), stride=(1, 1), bias=False) ) (neck): FPN( (lateral_convs): ModuleList( (0): ConvModule( (conv): Conv2d(256, 256, kernel_size=(1, 1), stride=(1, 1)) ) (1): ConvModule( (conv): Conv2d(512, 256, kernel_size=(1, 1), stride=(1, 1)) ) (2): ConvModule( (conv): Conv2d(1024, 256, kernel_size=(1, 1), stride=(1, 1)) ) (3): ConvModule( (conv): Conv2d(2048, 256, kernel_size=(1, 1), stride=(1, 1)) ) ) (fpn_convs): ModuleList( (0): ConvModule( (conv): Conv2d(256, 256, kernel_size=(3, 3), stride=(1, 1), padding=(1, 1)) ) (1): ConvModule( (conv): Conv2d(256, 256, kernel_size=(3, 3), stride=(1, 1), padding=(1, 1)) ) (2): ConvModule( (conv): Conv2d(256, 256, kernel_size=(3, 3), stride=(1, 1), padding=(1, 1)) ) (3): ConvModule( (conv): Conv2d(256, 256, kernel_size=(3, 3), stride=(1, 1), padding=(1, 1)) ) ) ) (rpn_head): RPNHead( (loss_cls): CrossEntropyLoss() (loss_bbox): SmoothL1Loss() (rpn_conv): Conv2d(256, 256, kernel_size=(3, 3), stride=(1, 1), padding=(1, 1)) (rpn_cls): Conv2d(256, 3, kernel_size=(1, 1), stride=(1, 1)) (rpn_reg): Conv2d(256, 12, kernel_size=(1, 1), stride=(1, 1)) ) (bbox_roi_extractor): SingleRoIExtractor( (roi_layers): ModuleList( (0): RoIAlign() (1): RoIAlign() (2): RoIAlign() (3): RoIAlign() ) ) (bbox_head): SharedFCBBoxHead( (loss_cls): CrossEntropyLoss() (loss_bbox): SmoothL1Loss() (fc_cls): Linear(in_features=1024, out_features=2, bias=True) (fc_reg): Linear(in_features=1024, out_features=8, bias=True) (shared_convs): ModuleList() (shared_fcs): ModuleList( (0): Linear(in_features=12544, out_features=1024, bias=True) (1): Linear(in_features=1024, out_features=1024, bias=True) ) (cls_convs): ModuleList() (cls_fcs): ModuleList() (reg_convs): ModuleList() (reg_fcs): ModuleList() (relu): ReLU(inplace) ) (mask_roi_extractor): SingleRoIExtractor( (roi_layers): ModuleList( (0): RoIAlign() (1): RoIAlign() (2): RoIAlign() (3): RoIAlign() ) ) (mask_head): FCNMaskHead( (loss_mask): CrossEntropyLoss() (convs): ModuleList( (0): ConvModule( (conv): Conv2d(256, 256, kernel_size=(3, 3), stride=(1, 1), padding=(1, 1)) (activate): ReLU(inplace) ) (1): ConvModule( (conv): Conv2d(256, 256, kernel_size=(3, 3), stride=(1, 1), padding=(1, 1)) (activate): ReLU(inplace) ) (2): ConvModule( (conv): Conv2d(256, 256, kernel_size=(3, 3), stride=(1, 1), padding=(1, 1)) (activate): ReLU(inplace) ) (3): ConvModule( (conv): Conv2d(256, 256, kernel_size=(3, 3), stride=(1, 1), padding=(1, 1)) (activate): ReLU(inplace) ) ) (upsample): ConvTranspose2d(256, 256, kernel_size=(2, 2), stride=(2, 2)) (conv_logits): Conv2d(256, 2, kernel_size=(1, 1), stride=(1, 1)) (relu): ReLU(inplace) ))]]></content>
      <categories>
        <category>经典网络结构</category>
      </categories>
      <tags>
        <tag>标签1</tag>
        <tag>标签2</tag>
      </tags>
  </entry>
  <entry>
    <title><![CDATA[Fast RCNN]]></title>
    <url>%2F%E7%9B%AE%E6%A0%87%E6%A3%80%E6%B5%8B%2FFast%20RCNN%2F</url>
    <content type="text"><![CDATA[Fas
…
el_size=3, padding=1), # 256个[3*3*192]卷积核 nn.ReLU(inplace=True), nn.MaxPool2d(kernel_size=3, stride=2), ) self.fc4 = nn.Sequential( nn.Linear(1*1*256, 4096), nn.ReLU(inplace=True), nn.Dropout(0.5), # 防止过拟合，丢掉 p=0.5 的 nn.Linear(4096, 4096), nn.ReLU(inplace=True), nn.Dropout(0.5), # 防止过拟合，丢掉 p=0.5 的 nn.Linear(4096, n_class) ) def forward(self, x): con1_x = self.conv1(x) con2_x = self.conv2(con1_x) con3_x = self.conv3(con2_x) # 注意：卷积层到全连接层需要经过变换 lin_x = con3_x.view(con3_x.size(0), -1) # 用 reshape 也可以？注意和 reshape 的区别！ out = self.fc4(lin_x) return out 输出 AlexNet 的形状 AlexNet( (conv1): Sequential( (0): Conv2d(3, 96, kernel_size=(11, 11), stride=(4, 4)) (1): ReLU(inplace) (2): MaxPool2d(kernel_size=3, stride=2, padding=0, dilation=1, ceil_mode=False) ) (conv2): Sequential( (0): Conv2d(96, 256, kernel_size=(5, 5), stride=(1, 1), padding=(2, 2)) (1): ReLU(inplace) (2): MaxPool2d(kernel_size=3, stride=2, padding=0, dilation=1, ceil_mode=False) ) (conv3): Sequential( (0): Conv2d(256, 384, kernel_size=(3, 3), stride=(1, 1), padding=(1, 1)) (1): ReLU(inplace) (2): Conv2d(384, 384, kernel_size=(3, 3), stride=(1, 1), padding=(1, 1)) (3): ReLU(inplace) (4): Conv2d(384, 256, kernel_size=(3, 3), stride=(1, 1), padding=(1, 1)) (5): ReLU(inplace) (6): MaxPool2d(kernel_size=3, stride=2, padding=0, dilation=1, ceil_mode=False) ) (fc4): Sequential( (0): Linear(in_features=256, out_features=4096, bias=True) (1): ReLU(inplace) (2): Dropout(p=0.5) (3): Linear(in_features=4096, out_features =4096, bias=True) (4): ReLU(inplace) (5): Dropout(p=0.5) (6): Linear(in_features=4096, out_features=1000, bias=True) )) 图像预处理 AlexNet 使用的是 227227 的图片而本文使用的 CIFAR-10 数据集中已有 3232 的图片 12345transform = torchvision.transforms.Compose([ torchvision.transforms.Resize(96), torchvision.transforms.ToTensor(), # 将数据转化成 tensor torchvision.transforms.Normalize((0.5, 0.5, 0.5), (0.5, 0.5, 0.5)) # 归一化。参数为数据的平均差、标准差]) 定义超参数 12345use_gpu = torch.cuda.is_available()EPOCH = 3learning
…
      </categories>
      <tags>
        <tag>pytorch</tag>
      </tags>
  </entry>
  <entry>
    <title><![CDATA[ResNet]]></title>
    <url>%2F%E7%BB%8F%E5%85%B8%E7%BD%91%E7%BB%9C%E7%BB%93%E6%9E%84%2FResNet%2F</url>
    <content type="text"><![CDATA[ResNet作者由VGG19设计出了plain 网络和残差网络，如下图中部和右侧网络。然后利用这两种网络进行实验对比。 设计网络的规则： 对于输出feature map大小相同的层，有相同数量的filters，即channel数相同； 当feature map大小减半时（池化），filters数量翻倍。 对于残差网络，维度匹配的shortcut连接为实线，反之为虚线。维度不匹配时，同等映射有两种可选方案： a) 直接通过zero padding 来增加维度（channel）。 b) 乘以W矩阵投影到新的空间。实现是用1x1卷积实现的，直接改变1x1卷积的filters数目。这种会增加参数。 resnet-101 结构示意:…\\\\ 0-Sequential( (0): Bottleneck( (conv1): Conv2d(64, 64, kernel_size=(1, 1), stride=(1, 1), bias=False) (bn1): BatchNorm2d(64, eps=1e-05, momentum=0.1, affine=True, track_running_stats=True) (conv2): Conv2d(64, 64, kernel_size=(3, 3), stride=(1, 1), padding=(1, 1), bias=False) (bn2): BatchNorm2d(64, eps=1e-05, momentum=0.1, affine=True, track_running_stats=True) (conv3): Conv2d(64, 256, kernel_size=(1, 1), stride=(1, 1), bias=False) (bn3): BatchNorm2d(256, eps=1e-05, momentum=0.1, affine=True, track_running_stats=True) (relu): ReLU(inplace) (downsample): Sequential( (0): Conv2d(64, 256, kernel_size=(1, 1), stride=(1, 1), bias=False) (1): BatchNorm2d(256, eps=1e-05, momentum=0.1, affine=True, track_running_stats=True) ) ) (1): Bottleneck( (conv1): Conv2d(256, 64, kernel_size=(1, 1), stride=(1, 1), bias=False) (bn1): BatchNorm2d(64, eps=1e-05, momentum=0.1, affine=True, track_running_stats=True) (conv2): Conv2d(64, 64, kernel_size=(3, 3), stride=(1, 1), padding=(1, 1), bias=False) (bn2): BatchNorm2d(64, eps=1e-05, momentum=0.1, affine=True, track_running_stats=True) (conv3): Conv2d(64, 256, kernel_size=(1, 1), stride=(1, 1), bias=False) (bn3): BatchNorm2d(256, eps=1e-05, momentum=0.1, affine=True, track_running_stats=True) (relu): ReLU(inplace) ) (2): Bottleneck( (conv1): Conv2d(256, 64, kernel_size=(1, 1), stride=(1, 1), bias=False) (bn1): BatchNorm2d(64, eps=1e-05, momentum=0.1, affine=True, track_running_stats=True) (conv2): Conv2d(64, 64, kernel_size=(3, 3), stride=(1, 1), padding=(1, 1), bias=False) (bn2): BatchNorm2d(64, eps=1e-05, momentum=0.1, affine=True, track_running_stats=True) (conv3): Conv2d(64, 256, kernel_size=(1, 1), stride=(1, 1), bias=False) (bn3): BatchNorm2d(256, eps=1e-05, momentum=0.1, affine=True, track_running_stats=True) (relu): ReLU(inplace) ))\\\\ 1-Sequential( (0): Bottleneck( (conv1): Conv2d(256, 128, kernel_size=(1, 1), stride=(1, 1), bias=False) (bn1): BatchNorm2d(128, eps=1e-05, momentum=0.1, affine=True, track_running_stats=True) (conv2): Conv2d(128, 128, kernel_size=(3, 3), stride=(2, 2), padding=(1, 1), bias=False) (bn2): BatchNorm2d(128, eps=1e-05, momentum=0.1, affine=True, track_running_stats=True) (conv3): Conv2d(128, 512, kernel_size=(1, 1), stride=(1, 1), bias=False) (bn3): BatchNorm2d(512, eps=1e-05, momentum=0.1, affine=True, track_running_stats=True) (relu): ReLU(inplace) (downsample): Sequential( (0): Conv2d(256, 512, kernel_size=(1, 1), stride=(2, 2), bias=False) (1): BatchNorm2d(512, eps=1e-05, momentum=0.1, affine=True, track_running_stats=True) ) ) (1): Bottleneck( (conv1): Conv2d(512, 128, kernel_size=(1, 1), stride=(1, 1), bias=False) (bn1): BatchNorm2d(128, eps=1e-05, momentum=0.1, affine=True, track_running_stats=True) (conv2): Conv2d(128, 128, kernel_size=(3, 3), stride=(1, 1), padding=(1, 1), bias=False) (bn2): BatchNorm2d(128, eps=1e-05, momentum=0.1, affine=True, track_running_stats=True) (conv3): Conv2d(128, 512, kernel_size=(1, 1), stride=(1, 1), bias=False) (bn3): BatchNorm2d(512, eps=1e-05, momentum=0.1, affine=True, track_running_stats=True) (relu): ReLU(inplace) ) (2): Bottleneck( (conv1): Conv2d(512, 128, kernel_size=(1, 1), stride=(1, 1), bias=False) (bn1): BatchNorm2d(128, eps=1e-05, momentum=0.1, affine=True, track_running_stats=True) (conv2): Conv2d(128, 128, kernel_size=(3, 3), stride=(1, 1), padding=(1, 1), bias=False) (bn2): BatchNorm2d(128, eps=1e-05, momentum=0.1, affine=True, track_running_stats=True) (conv3): Conv2d(128, 512, kernel_size=(1, 1), stride=(1, 1), bias=False) (bn3): BatchNorm2d(512, eps=1e-05, momentum=0.1, affine=True, track_running_stats=True) (relu): ReLU(inplace) ) (3): Bottleneck( (conv1): Conv2d(512, 128, kernel_size=(1, 1), stride=(1, 1), bias=False) (bn1): BatchNorm2d(128, eps=1e-05, momentum=0.1, affine=True, track_running_stats=True) (conv2): Conv2d(128, 128, kernel_size=(3, 3), stride=(1, 1), padding=(1, 1), bias=False) (bn2): BatchNorm2d(128, eps=1e-05, momentum=0.1, affine=True, track_running_stats=True) (conv3): Conv2d(128, 512, kernel_size=(1, 1), stride=(1, 1), bias=False) (bn3): BatchNorm2d(512, eps=1e-05, momentum=0.1, affine=True, track_running_stats=True) (relu): ReLU(inplace) ))\\\\ 2-Sequential( (0): Bottleneck( (conv1): Conv2d(512, 256, kernel_size=(1, 1), stride=(1, 1), bias=False) (bn1): BatchNorm2d(256, eps=1e-05, momentum=0.1, affine=True, track_running_stats=True) (conv2): Conv2d(256, 256, kernel_size=(3, 3), stride=(2, 2), padding=(1, 1), bias=False) (bn2): BatchNorm2d(256, eps=1e-05, momentum=0.1, affine=True, track_running_stats=True) (conv3): Conv2d(256, 1024, kernel_size=(1, 1), stride=(1, 1), bias=False) (bn3): BatchNorm2d(1024, eps=1e-05, momentum=0.1, affine=True, track_running_stats=True) (relu): ReLU(inplace) (downsample): Sequential( (0): Conv2d(512, 1024, kernel_size=(1, 1), stride=(2, 2), bias=False) (1): BatchNorm2d(1024, eps=1e-05, momentum=0.1, affine=True, track_running_stats=True) ) ) (1): Bottleneck( (conv1): Conv2d(1024, 256, kernel_size=(1, 1), stride=(1, 1), bias=False) (bn1): BatchNorm2d(256, eps=1e-05, momentum=0.1, affine=True, track_running_stats=True) (conv2): Conv2d(256, 256, kernel_size=(3, 3), stride=(1, 1), padding=(1, 1), bias=False) (bn2): BatchNorm2d(256, eps=1e-05, momentum=0.1, affine=True, track_running_stats=True) (conv3): Conv2d(256, 1024, kernel_size=(1, 1), stride=(1, 1), bias=False) (bn3): BatchNorm2d(1024, eps=1e-05, momentum=0.1, affine=True, track_running_stats=True) (relu): ReLU(inplace) ) (2): Bottleneck( (conv1): Conv2d(1024, 256, kernel_size=(1, 1), stride=(1, 1), bias=False) (bn1): BatchNorm2d(256, eps=1e-05, momentum=0.1, affine=True, track_running_stats=True) (conv2): Conv2d(256, 256, kernel_size=(3, 3), stride=(1, 1), padding=(1, 1), bias=False) (bn2): BatchNorm2d(256, eps=1e-05, momentum=0.1, affine=True, track_running_stats=True) (conv3): Conv2d(256, 1024, kernel_size=(1, 1), stride=(1, 1), bias=False) (bn3): BatchNorm2d(1024, eps=1e-05, momentum=0.1, affine=True, track_running_stats=True) (relu): ReLU(inplace) ) (3): Bottleneck( (conv1): Conv2d(1024, 256, kernel_size=(1, 1), stride=(1, 1), bias=False) (bn1): BatchNorm2d(256, eps=1e-05, momentum=0.1, affine=True, track_running_stats=True) (conv2): Conv2d(256, 256, kernel_size=(3, 3), stride=(1, 1), padding=(1, 1), bias=False) (bn2): BatchNorm2d(256, eps=1e-05, momentum=0.1, affine=True, track_running_stats=True) (conv3): Conv2d(256, 1024, kernel_size=(1, 1), stride=(1, 1), bias=False) (bn3): BatchNorm2d(1024, eps=1e-05, momentum=0.1, affine=True, track_running_stats=True) (relu): ReLU(inplace) ) (4): Bottleneck( (conv1): Conv2d(1024, 256, kernel_size=(1, 1), stride=(1, 1), bias=False) (bn1): BatchNorm2d(256, eps=1e-05, momentum=0.1, affine=True, track_running_stats=True) (conv2): Conv2d(256, 256, kernel_size=(3, 3), stride=(1, 1), padding=(1, 1), bias=False) (bn2): BatchNorm2d(256, eps=1e-05, momentum=0.1, affine=True, track_running_stats=True) (conv3): Conv2d(256, 1024, kernel_size=(1, 1), stride=(1, 1), bias=False) (bn3): BatchNorm2d(1024, eps=1e-05, momentum=0.1, affine=True, track_running_stats=True) (relu): ReLU(inplace) ) (5): Bottleneck( (conv1): Conv2d(1024, 256, kernel_size=(1, 1), stride=(1, 1), bias=False) (bn1): BatchNorm2d(256, eps=1e-05, momentum=0.1, affine=True, track_running_stats=True) (conv2): Conv2d(256, 256, kernel_size=(3, 3), stride=(1, 1), padding=(1, 1), bias=False) (bn2): BatchNorm2d(256, eps=1e-05, momentum=0.1, affine=True, track_running_stats=True) (conv3): Conv2d(256, 1024, kernel_size=(1, 1), stride=(1, 1), bias=False) (bn3): BatchNorm2d(1024, eps=1e-05, momentum=0.1, affine=True, track_running_stats=True) (relu): ReLU(inplace) ) (6): Bottleneck( (conv1): Conv2d(1024, 256, kernel_size=(1, 1), stride=(1, 1), bias=False) (bn1): BatchNorm2d(256, eps=1e-05, momentum=0.1, affine=True, track_running_stats=True) (conv2): Conv2d(256, 256, kernel_size=(3, 3), stride=(1, 1), padding=(1, 1), bias=False) (bn2): BatchNorm2d(256, eps=1e-05, momentum=0.1, affine=True, track_running_stats=True) (conv3): Conv2d(256, 1024, kernel_size=(1, 1), stride=(1, 1), bias=False) (bn3): BatchNorm2d(1024, eps=1e-05, momentum=0.1, affine=True, track_running_stats=True) (relu): ReLU(inplace) ) (7): Bottleneck( (conv1): Conv2d(1024, 256, kernel_size=(1, 1), stride=(1, 1), bias=False) (bn1): BatchNorm2d(256, eps=1e-05, momentum=0.1, affine=True, track_running_stats=True) (conv2): Conv2d(256, 256, kernel_size=(3, 3), stride=(1, 1), padding=(1, 1), bias=False) (bn2): BatchNorm2d(256, eps=1e-05, momentum=0.1, affine=True, track_running_stats=True) (conv3): Conv2d(256, 1024, kernel_size=(1, 1), stride=(1, 1), bias=False) (bn3): BatchNorm2d(1024, eps=1e-05, momentum=0.1, affine=True, track_running_stats=True) (relu): ReLU(inplace) ) (8): Bottleneck( (conv1): Conv2d(1024, 256, kernel_size=(1, 1), stride=(1, 1), bias=False) (bn1): BatchNorm2d(256, eps=1e-05, momentum=0.1, affine=True, track_running_stats=True) (conv2): Conv2d(256, 256, kernel_size=(3, 3), stride=(1, 1), padding=(1, 1), bias=False) (bn2): BatchNorm2d(256, eps=1e-05, momentum=0.1, affine=True, track_running_stats=True) (conv3): Conv2d(256, 1024, kernel_size=(1, 1), stride=(1, 1), bias=False) (bn3): BatchNorm2d(1024, eps=1e-05, momentum=0.1, affine=True, track_running_stats=True) (relu): ReLU(inplace) ) (9): Bottleneck( (conv1): Conv2d(1024, 256, kernel_size=(1, 1), stride=(1, 1), bias=False) (bn1): BatchNorm2d(256, eps=1e-05, momentum=0.1, affine=True, track_running_stats=True) (conv2): Conv2d(256, 256, kernel_size=(3, 3), stride=(1, 1), padding=(1, 1), bias=False) (bn2): BatchNorm2d(256, eps=1e-05, momentum=0.1, affine=True, track_running_stats=True) (conv3): Conv2d(256, 1024, kernel_size=(1, 1), stride=(1, 1), bias=False) (bn3): BatchNorm2d(1024, eps=1e-05, momentum=0.1, affine=True, track_running_stats=True) (relu): ReLU(inplace) ) (10): Bottleneck( (conv1): Conv2d(1024, 256, kernel_size=(1, 1), stride=(1, 1), bias=False) (bn1): BatchNorm2d(256, eps=1e-05, momentum=0.1, affine=True, track_running_stats=True) (conv2): Conv2d(256, 256, kernel_size=(3, 3), stride=(1, 1), padding=(1, 1), bias=False) (bn2): BatchNorm2d(256, eps=1e-05, momentum=0.1, affine=True, track_running_stats=True) (conv3): Conv2d(256, 1024, kernel_size=(1, 1), stride=(1, 1), bias=False) (bn3): BatchNorm2d(1024, eps=1e-05, momentum=0.1, affine=True, track_running_stats=True) (relu): ReLU(inplace) ) (11): Bottleneck( (conv1): Conv2d(1024, 256, kernel_size=(1, 1), stride=(1, 1), bias=False) (bn1): BatchNorm2d(256, eps=1e-05, momentum=0.1, affine=True, track_running_stats=True) (conv2): Conv2d(256, 256, kernel_size=(3, 3), stride=(1, 1), padding=(1, 1), bias=False) (bn2): BatchNorm2d(256, eps=1e-05, momentum=0.1, affine=True, track_running_stats=True) (conv3): Conv2d(256, 1024, kernel_size=(1, 1), stride=(1, 1), bias=False) (bn3): BatchNorm2d(1024, eps=1e-05, momentum=0.1, affine=True, track_running_stats=True) (relu): ReLU(inplace) ) (12): Bottleneck( (conv1): Conv2d(1024, 256, kernel_size=(1, 1), stride=(1, 1), bias=False) (bn1): BatchNorm2d(256, eps=1e-05, momentum=0.1, affine=True, track_running_stats=True) (conv2): Conv2d(256, 256, kernel_size=(3, 3), stride=(1, 1), padding=(1, 1), bias=False) (bn2): BatchNorm2d(256, eps=1e-05, momentum=0.1, affine=True, track_running_stats=True) (conv3): Conv2d(256, 1024, kernel_size=(1, 1), stride=(1, 1), bias=False) (bn3): BatchNorm2d(1024, eps=1e-05, momentum=0.1, affine=True, track_running_stats=True) (relu): ReLU(inplace) ) (13): Bottleneck( (conv1): Conv2d(1024, 256, kernel_size=(1, 1), stride=(1, 1), bias=False) (bn1): BatchNorm2d(256, eps=1e-05, momentum=0.1, affine=True, track_running_stats=True) (conv2): Conv2d(256, 256, kernel_size=(3, 3), stride=(1, 1), padding=(1, 1), bias=False) (bn2): BatchNorm2d(256, eps=1e-05, momentum=0.1, affine=True, track_running_stats=True) (conv3): Conv2d(256, 1024, kernel_size=(1, 1), stride=(1, 1), bias=False) (bn3): BatchNorm2d(1024, eps=1e-05, momentum=0.1, affine=True, track_running_stats=True) (relu): ReLU(inplace) ) (14): Bottleneck( (conv1): Conv2d(1024, 256, kernel_size=(1, 1), stride=(1, 1), bias=False) (bn1): BatchNorm2d(256, eps=1e-05, momentum=0.1, affine=True, track_running_stats=True) (conv2): Conv2d(256, 256, kernel_size=(3, 3), stride=(1, 1), padding=(1, 1), bias=False) (bn2): BatchNorm2d(256, eps=1e-05, momentum=0.1, affine=True, track_running_stats=True) (conv3): Conv2d(256, 1024, kernel_size=(1, 1), stride=(1, 1), bias=False) (bn3): BatchNorm2d(1024, eps=1e-05, momentum=0.1, affine=True, track_running_stats=True) (relu): ReLU(inplace) ) (15): Bottleneck( (conv1): Conv2d(1024, 256, kernel_size=(1, 1), stride=(1, 1), bias=False) (bn1): BatchNorm2d(256, eps=1e-05, momentum=0.1, affine=True, track_running_stats=True) (conv2): Conv2d(256, 256, kernel_size=(3, 3), stride=(1, 1), padding=(1, 1), bias=False) (bn2): BatchNorm2d(256, eps=1e-05, momentum=0.1, affine=True, track_running_stats=True) (conv3): Conv2d(256, 1024, kernel_size=(1, 1), stride=(1, 1), bias=False) (bn3): BatchNorm2d(1024, eps=1e-05, momentum=0.1, affine=True, track_running_stats=True) (relu): ReLU(inplace) ) (16): Bottleneck( (conv1): Conv2d(1024, 256, kernel_size=(1, 1), stride=(1, 1), bias=False) (bn1): BatchNorm2d(256, eps=1e-05, momentum=0.1, affine=True, track_running_stats=True) (conv2): Conv2d(256, 256, kernel_size=(3, 3), stride=(1, 1), padding=(1, 1), bias=False) (bn2): BatchNorm2d(256, eps=1e-05, momentum=0.1, affine=True, track_running_stats=True) (conv3): Conv2d(256, 1024, kernel_size=(1, 1), stride=(1, 1), bias=False) (bn3): BatchNorm2d(1024, eps=1e-05, momentum=0.1, affine=True, track_running_stats=True) (relu): ReLU(inplace) ) (17): Bottleneck( (conv1): Conv2d(1024, 256, kernel_size=(1, 1), stride=(1, 1), bias=False) (bn1): BatchNorm2d(256, eps=1e-05, momentum=0.1, affine=True, track_running_stats=True) (conv2): Conv2d(256, 256, kernel_size=(3, 3), stride=(1, 1), padding=(1, 1), bias=False) (bn2): BatchNorm2d(256, eps=1e-05, momentum=0.1, affine=True, track_running_stats=True) (conv3): Conv2d(256, 1024, kernel_size=(1, 1), stride=(1, 1), bias=False) (bn3): BatchNorm2d(1024, eps=1e-05, momentum=0.1, affine=True, track_running_stats=True) (relu): ReLU(inplace) ) (18): Bottleneck( (conv1): Conv2d(1024, 256, kernel_size=(1, 1), stride=(1, 1), bias=False) (bn1): BatchNorm2d(256, eps=1e-05, momentum=0.1, affine=True, track_running_stats=True) (conv2): Conv2d(256, 256, kernel_size=(3, 3), stride=(1, 1), padding=(1, 1), bias=False) (bn2): BatchNorm2d(256, eps=1e-05, momentum=0.1, affine=True, track_running_stats=True) (conv3): Conv2d(256, 1024, kernel_size=(1, 1), stride=(1, 1), bias=False) (bn3): BatchNorm2d(1024, eps=1e-05, momentum=0.1, affine=True, track_running_stats=True) (relu): ReLU(inplace) ) (19): Bottleneck( (conv1): Conv2d(1024, 256, kernel_size=(1, 1), stride=(1, 1), bias=False) (bn1): BatchNorm2d(256, eps=1e-05, momentum=0.1, affine=True, track_running_stats=True) (conv2): Conv2d(256, 256, kernel_size=(3, 3), stride=(1, 1), padding=(1, 1), bias=False) (bn2): BatchNorm2d(256, eps=1e-05, momentum=0.1, affine=True, track_running_stats=True) (conv3): Conv2d(256, 1024, kernel_size=(1, 1), stride=(1, 1), bias=False) (bn3): BatchNorm2d(1024, eps=1e-05, momentum=0.1, affine=True, track_running_stats=True) (relu): ReLU(inplace) ) (20): Bottleneck( (conv1): Conv2d(1024, 256, kernel_size=(1, 1), stride=(1, 1), bias=False) (bn1): BatchNorm2d(256, eps=1e-05, momentum=0.1, affine=True, track_running_stats=True) (conv2): Conv2d(256, 256, kernel_size=(3, 3), stride=(1, 1), padding=(1, 1), bias=False) (bn2): BatchNorm2d(256, eps=1e-05, momentum=0.1, affine=True, track_running_stats=True) (conv3): Conv2d(256, 1024, kernel_size=(1, 1), stride=(1, 1), bias=False) (bn3): BatchNorm2d(1024, eps=1e-05, momentum=0.1, affine=True, track_running_stats=True) (relu): ReLU(inplace) ) (21): Bottleneck( (conv1): Conv2d(1024, 256, kernel_size=(1, 1), stride=(1, 1), bias=False) (bn1): BatchNorm2d(256, eps=1e-05, momentum=0.1, affine=True, track_running_stats=True) (conv2): Conv2d(256, 256, kernel_size=(3, 3), stride=(1, 1), padding=(1, 1), bias=False) (bn2): BatchNorm2d(256, eps=1e-05, momentum=0.1, affine=True, track_running_stats=True) (conv3): Conv2d(256, 1024, kernel_size=(1, 1), stride=(1, 1), bias=False) (bn3): BatchNorm2d(1024, eps=1e-05, momentum=0.1, affine=True, track_running_stats=True) (relu): ReLU(inplace) ) (22): Bottleneck( (conv1): Conv2d(1024, 256, kernel_size=(1, 1), stride=(1, 1), bias=False) (bn1): BatchNorm2d(256, eps=1e-05, momentum=0.1, affine=True, track_running_stats=True) (conv2): Conv2d(256, 256, kernel_size=(3, 3), stride=(1, 1), padding=(1, 1), bias=False) (bn2): BatchNorm2d(256, eps=1e-05, momentum=0.1, affine=True, track_running_stats=True) (conv3): Conv2d(256, 1024, kernel_size=(1, 1), stride=(1, 1), bias=False) (bn3): BatchNorm2d(1024, eps=1e-05, momentum=0.1, affine=True, track_running_stats=True) (relu): ReLU(inplace) ))\\\\ 3-Sequential( (0): Bottleneck( (conv1): Conv2d(1024, 512, kernel_size=(1, 1), stride=(1, 1), bias=False) (bn1): BatchNorm2d(512, eps=1e-05, momentum=0.1, affine=True, track_running_stats=True) (conv2): Conv2d(512, 512, kernel_size=(3, 3), stride=(2, 2), padding=(1, 1), bias=False) (bn2): BatchNorm2d(512, eps=1e-05, momentum=0.1, affine=True, track_running_stats=True) (conv3): Conv2d(512, 2048, kernel_size=(1, 1), stride=(1, 1), bias=False) (bn3): BatchNorm2d(2048, eps=1e-05, momentum=0.1, affine=True, track_running_stats=True) (relu): ReLU(inplace) (downsample): Sequential( (0): Conv2d(1024, 2048, kernel_size=(1, 1), stride=(2, 2), bias=False) (1): BatchNorm2d(2048, eps=1e-05, momentum=0.1, affine=True, track_running_stats=True) ) ) (1): Bottleneck( (conv1): Conv2d(2048, 512, kernel_size=(1, 1), stride=(1, 1), bias=False) (bn1): BatchNorm2d(512, eps=1e-05, momentum=0.1, affine=True, track_running_stats=True) (conv2): Conv2d(512, 512, kernel_size=(3, 3), stride=(1, 1), padding=(1, 1), bias=False) (bn2): BatchNorm2d(512, eps=1e-05, momentum=0.1, affine=True, track_running_stats=True) (conv3): Conv2d(512, 2048, kernel_size=(1, 1), stride=(1, 1), bias=False) (bn3): BatchNorm2d(2048, eps=1e-05, momentum=0.1, affine=True, track_running_stats=True) (relu): ReLU(inplace) ) (2): Bottleneck( (conv1): Conv2d(2048, 512, kernel_size=(1, 1), stride=(1, 1), bias=False) (bn1): BatchNorm2d(512, eps=1e-05, momentum=0.1, affine=True, track_running_stats=True) (conv2): Conv2d(512, 512, kernel_size=(3, 3), stride=(1, 1), padding=(1, 1), bias=False) (bn2): BatchNorm2d(512, eps=1e-05, momentum=0.1, affine=True, track_running_stats=True) (conv3): Conv2d(512, 2048, kernel_size=(1, 1), stride=(1, 1), bias=False) (bn3): BatchNorm2d(2048, eps=1e-05, momentum=0.1, affine=True, track_running_stats=True) (relu): ReLU(inplace) )) resnet代码复现https://www.cnblogs.com/wanghui-garcia/p/10775860.htmlhttps://www.cnblogs.com/Mrzhang3389/p/10127223.html …# ! /usr/bin/env python# -*- coding:utf-8 -*-# @author: Edison Jia-hao-Chen# time: 2019-6-13# email: JiahaoChen@whu.edu.cn# A implementation of ResNet (Pytorch)import loggingimport torch.n
…
ential( # BasicConv2d(3, 32, kernel_size=3, stride=2), # BasicConv2d(32, 32, kernel_size=3, stride=1), # BasicConv2d(32, 64, kernel_size=3, stride=1, padding=1), # Mixed_3a(), # Mixed_4a(), # Mixed_5a(), # Inception_A(), # Inception_A(), # Inception_A(), # Inception_A(), # Reduction_A(), # Mixed_6a # Inception_B(), # Inception_B(), # Inception_B(), # Inception_B(), # Inception_B(), # Inception_B(), # Inception_B(), # Reduction_B(), # Mixed_7a # Inception_C(), # Inception_C(), # Inception_C() # ) # 改变前的InceptionV4 print(model) # InceptionV4( # (features): Sequential( # (0): BasicConv2d( # (conv): Conv2d(3, 32, kernel_size=(3, 3), stride=(2, 2), bias=False) # (bn): BatchNorm2d(32, eps=0.001, momentum=0.1, affine=True, track_running_stats=True) # (relu): ReLU(inplace) # ) # (last_linear): (last_linear): Linear(in_features=1536, out_features=1000, bias=True) # 修改模型输入维度 model.features._modules["0"] = BasicConv2d(config.channels, 32, kernel_size=3, stride=2) # 修改模型输出维度 model.last_linear = nn.Sequential( nn.BatchNorm1d(1536), nn.Dropout(0.5), nn.Linear(1536, config.num_classes), ) # 查看部分层的方法(也可以用此方法进行修改) print(model.features._modules["21"].branch0.conv) print(model.features._modules["0"]._modules["conv"]) print(model.features._modules["0"].conv) # 改变后的InceptionV4 print(model) # (conv): Conv2d(4, 32, kernel_size=(3, 3), stride=(2, 2), bias=False) # (last_linear): Sequential( # (0): BatchNorm1d(1536, eps=1e-05, momentum=0.1, affine=True, track_running_stats=True) # (1): Dropout(p=0.5) # (2): Linear(in_features=1536, out_features=28, bias=True) # ) # 新创建的所有的训练参数名字 print(model.state_dict().keys()) # 新创建的模型的所有的参数iterator for i, j in model.named_parameters(): if i in ['last_linear.weight']: print(i) print(j) # 直接从官方model_zoo下载 # print("直接从官方model_zoo下载") # import torch.utils.model_zoo as model_zoo # # pretrained_dict = model_zoo.load_url('http://data.lip6.fr/cadene/pretrainedmodels/inceptionresn
…
